integrated_gradients/model_data_for_explainability_analysis/best_female_transformer.pt (torch, 856297 bytes, 30 tensors)

proj.weight f4 [64, 192]
0	0x3f128b62	0.5724393
1	0x3d62a42c	0.055332348
2	0xbd741fbe	-0.059600584
3	0x3e28cdef	0.16484807
4	0xbc4194d5	-0.0118152695
5	0xbbb9a5d1	-0.005665519
6	0xbd858053	-0.065186165
7	0xbe08d33d	-0.13361831
8	0xbe16c641	-0.14724065
9	0xbead55eb	-0.33854613
10	0xbed0f48c	-0.40811574
11	0xbe2441e6	-0.16040763
12	0x3d032e52	0.032026596
13	0x3cc608cb	0.024174115
14	0xbd0036e4	-0.031302348
15	0xbdf1a960	-0.11799884
16	0xbe05ba3b	-0.13059323
17	0xbda11c01	-0.078666694
18	0xbc6b52c7	-0.014362997
19	0x3cd085b5	0.025454381
20	0xbdcc2850	-0.099686265
21	0xbe07ddb0	-0.13268161
22	0x3e665ebf	0.2249708
23	0x3eb40e6e	0.3516726
24	0x3e1f76c8	0.15572655
25	0xbd9bf6eb	-0.07615455
26	0x3e45cfea	0.19317594
27	0x3cc9dfc4	0.024642833
28	0x3db59456	0.088661835
29	0xbdb9138e	-0.09036933
30	0x3dcd9d05	0.10039715
31	0xbde5f923	-0.1122916
32	0x3e3b3b26	0.18284282
33	0x3e1f99f2	0.15586069
34	0x3e888af1	0.26668504
35	0x3e398222	0.18116048
36	0x3d026e2e	0.031843357
37	0xbe480430	-0.19532847
38	0xbe3fb9e0	-0.1872325
39	0xbea218de	-0.31659597
40	0xbeae1cae	-0.34006256
41	0xbe8cbb42	-0.27486616
42	0x3d6efcbd	0.0583465
43	0x3eb6155e	0.35563177
44	0x3e63ad21	0.22234012
45	0x3ea7bebb	0.32762703
46	0x3d191328	0.037371784
47	0x3dc159cd	0.09440956
48	0xbeaa07b5	-0.33209005
49	0xbe5df4fa	-0.21675482
50	0xbd609778	-0.05483195
51	0x3e08a9c1	0.13346006
52	0x3e8dd4e6	0.2770149
53	0x3e551fda	0.20812932
54	0xbdeb7855	-0.11497561
55	0xbe8846bc	-0.26616466
56	0xbeb969e3	-0.36213598
57	0xbef9f15f	-0.48816964
58	0xbe1818c4	-0.14853197
59	0x3e2f6878	0.17129695
60	0x3ddaf861	0.10691906
61	0x3e0bcd32	0.13652495
62	0x3e9f5001	0.31115726
63	0x3d26ebb0	0.040752113
64	0xbd29d9df	-0.041467544
65	0x3d850cdc	0.06496593
66	0x3d4b0ba3	0.049571645
67	0x3bf60450	0.0075078383
68	0x3c76811f	0.015045433
69	0xbd5d3655	-0.054006893
70	0x3db80fe7	0.08987408
71	0x3dbbede6	0.09176235
72	0x3ea79e3a	0.32737905
73	0x3e04c560	0.12965918
74	0x3d643e32	0.055723377
75	0x3a3b82f2	0.0007152996
76	0xbd1395a4	-0.03603138
77	0x3d017ad4	0.03161128
78	0xbca09577	-0.01960252
79	0x3d31e073	0.043426942
80	0xbd7924a7	-0.06082597
81	0x3e30b42e	0.17256233
82	0x3e7647e8	0.24050868
83	0xbe187fd8	-0.14892519
84	0xbe4466a5	-0.19179781
85	0xba8dce64	-0.0010818955
86	0x3e626a3a	0.22110835
87	0x3e3f2400	0.18666077
88	0x3ea00f0a	0.31261474
89	0x3ddeb0d1	0.10873569
90	0x3e5bfba6	0.21482715
91	0x3eca7b98	0.3954742
92	0x3f00d338	0.50322294
93	0x3eeb2422	0.45926005
94	0x3eabc79a	0.3355072
95	0x3e03d7a0	0.12875223
96	0xbd4247fe	-0.04743194
97	0x3e7be4fd	0.24599071
98	0x3e1d98b9	0.1539029
99	0xbc179dbc	-0.009253915
100	0x3e346b45	0.17619045
101	0x3de32d1a	0.11092587
102	0x3edf975e	0.43670171
103	0x3ed273dc	0.4110402
104	0x3db3dc32	0.08782233
105	0xbce18eaf	-0.027533857
106	0x3d96ea88	0.07368952
107	0x3e0c6146	0.13708982
108	0x3e8c490f	0.2739949
109	0x3ead82e6	0.3388893
110	0x3ef6e2e1	0.4821997
111	0x3eba6863	0.36407766
112	0x3e0a89a4	0.13529068
113	0x3efc61d1	0.49293378
114	0x3e98607c	0.29761112
115	0x3e2768fe	0.16348645
116	0x3e93cf48	0.2886908
117	0x3e2b1b22	0.16709569
118	0x3e5ae41e	0.21376082
119	0x3e80e06e	0.25171226
120	0x3edb544b	0.42837748
121	0x3e71310f	0.2355387
122	0x3d944b73	0.07240953
123	0x3e94c20f	0.29054305
124	0x3ec09185	0.37611023
125	0x3f0de9fa	0.55435145
126	0x3ea10c72	0.31454808
127	0x3e87cd69	0.26523903
128	0x3e711b02	0.23545459
129	0x3d335122	0.043778546
130	0xbd9980ae	-0.07495247
131	0x3e0378f7	0.12839113
132	0x3de3f93c	0.11131522
133	0xbdd24c20	-0.10268426
134	0xbe61d5a7	-0.22054158
135	0xbe351320	-0.17683077
136	0xbe6ad638	-0.2293328
137	0xbd89b967	-0.06724816
138	0x3d0bdb91	0.03414494
139	0xbdb37773	-0.087630175
140	0xbdb40edd	-0.087918974
141	0x3db78b84	0.08962157
142	0x3e8df352	0.277247
143	0x3e1c2b93	0.15250997
144	0x3d7e6758	0.062110275
145	0x3e115841	0.14193822
146	0x3dc1b874	0.0945901
147	0xbdd675cd	-0.104716875
148	0x3dbdcd9a	0.09267731
149	0x3e00fa82	0.12595561
150	0xbcb449cf	-0.02200785
151	0xbd8861be	-0.06659268
152	0x3c92fcaf	0.017942755
153	0xbd34ac38	-0.044109553
154	0xbda9ec6e	-0.082970485
155	0x3e64a81f	0.22329758
156	0x3df5345e	0.11972879
157	0x3e1f79a6	0.15573749
158	0x3e8062c2	0.25075346
159	0x3ebd62ad	0.36989346
160	0x3e9a397a	0.30121976
161	0x3e000dea	0.12505308
162	0x3e2dbabc	0.16965765
163	0x3e6923c9	0.22767557
164	0xbdd43a03	-0.10362627
165	0xbe2f9d53	-0.17149858
166	0xbd935014	-0.07193008
167	0xbdf1c88e	-0.11805831
168	0xbe866038	-0.26245284
169	0xbd3bf905	-0.04589178
170	0x3d6506af	0.055914577
171	0x3ea5a804	0.32354748
172	0x3e2ad369	0.16682209
173	0x3e738c69	0.23784031
174	0x3e56192e	0.20908043
175	0xbd5f03b9	-0.05444691
176	0xbc8b7e43	-0.01702798
177	0x3da5808a	0.080811575
178	0x3e768a00	0.2407608
179	0x3df5ed7d	0.12008188
180	0x3e3662e7	0.17811166
181	0x3e8a769f	0.27043626
182	0x3e5e2b6c	0.21696252
183	0xbe0dd51e	-0.13850829
184	0xbe480f46	-0.19537076
185	0x3e1059c9	0.1409675
186	0x3ea7d6d3	0.32781085
187	0x3e484493	0.19557409
188	0x3e29d542	0.16585258
189	0x3e656c5a	0.22404614
190	0x3cac0466	0.020998191
191	0x3d79ba8a	0.060968913
192	0xbef91f52	-0.48656708
193	0x3eaf7a57	0.34273025
194	0x3eda715b	0.42664608
195	0xbd672834	-0.056434825
196	0x3db873db	0.09006473
197	0x3df338f2	0.11876096
198	0xbc16e0a0	-0.009208828
199	0xbe2b171d	-0.16708036
200	0xbe649517	-0.22322498
201	0xbd12581b	-0.035728555
202	0xbd89e93d	-0.0673394
203	0x3e457afa	0.19285193
204	0x3d9e98f2	0.07744016
205	0xbe833b49	-0.25631168
206	0xbe99ca81	-0.3003731
207	0x3cba00f4	0.022705533
208	0x3e1a7e62	0.15087274
209	0xbd0dc74c	-0.034613892
210	0xbd87918d	-0.066195585
211	0x3e2cea3e	0.16886231
212	0x3e560c84	0.20903212
213	0xbdb2fd9e	-0.0873978
214	0xbe380184	-0.17969328
215	0xbd8e3f20	-0.06945634
216	0xbdaa9cd1	-0.083306916
217	0x3db87911	0.090074666
218	0x3efcba24	0.49360764
219	0x3e97cb53	0.29647312
220	0x3efc347a	0.49258786
221	0x3ece9a71	0.40352204
222	0xbde72ab9	-0.112874456
223	0xbeb46b76	-0.35238236
224	0xbe6fc7ed	-0.2341611
225	0xbcccbdb4	-0.024992801
226	0x3ddf27d9	0.10896272
227	0x3e4ca1bb	0.1998357
228	0x3e16072a	0.1465117
229	0xbcf6ef66	-0.030143451
230	0xbd5a1031	-0.053238098
231	0xbe0a8648	-0.13527787
232	0xbe13ecfa	-0.14445868
233	0xbea391ad	-0.3194708
234	0xbe564895	-0.20926125
235	0xbe4b2f2d	-0.19842215
236	0xbe3d4121	-0.18481876
237	0xbe504a62	-0.20340875
238	0xbdfda468	-0.12384874
239	0x3b99ed2c	0.0046974625
240	0x3ded0653	0.11573472
241	0x3db25fee	0.087097034
242	0xbdf2965a	-0.118450835
243	0xbe855946	-0.26044673
244	0xbe043212	-0.12909725
245	0xbd433d9a	-0.04766617
246	0xbd229611	-0.039693896
247	0x3d49a00f	0.04922491
248	0x3ddce69b	0.10786172
249	0x3da53856	0.08067386
250	0x3d756833	0.059913825
251	0x3dc2a4a1	0.09504057
252	0x3e893085	0.2679483
253	0x3dc3ef7d	0.09567163
254	0x3dd05842	0.10173084
255	0x3dd28f16	0.10281198

proj.bias f4 [64]
0	0xbe0d83d3	-0.13819818
1	0xbe2299cc	-0.15878981
2	0xbde352b4	-0.11099759
3	0xbd4c90bf	-0.049942728
4	0xbbbcfa50	-0.0057671443
5	0x3d02bc05	0.03191759
6	0xbe02a0c0	-0.12756634
7	0xbc662cc4	-0.014048759
8	0x3cb74a8c	0.022374414
9	0xbcf31857	-0.029674692
10	0xbd755a40	-0.059900522
11	0x3ddcfbd1	0.10790218
12	0xbd8fc4ca	-0.070199564
13	0x3b140ee4	0.0022591883
14	0xbe04c62a	-0.12966219
15	0xbc981feb	-0.018569907
16	0xbc67799b	-0.014128114
17	0xbdbb3171	-0.091402896
18	0xbe1a8664	-0.15090328
19	0x3d29c359	0.041446064
20	0xbd28e4a4	-0.041233674
21	0xbd5f6d7d	-0.054547776
22	0x3cec6695	0.028857509
23	0x3d08d3b3	0.033405017
24	0xbdcbc7cd	-0.09950218
25	0xbbbdff59	-0.005798262
26	0x3d1e9859	0.03871951
27	0xbc7f08ee	-0.015566094
28	0xbe0b8c31	-0.13627698
29	0x3e8a4df2	0.27012593
30	0xbd1d631e	-0.038424604
31	0x3e6a9a0b	0.22910325
32	0xbe26cf8d	-0.16290112
33	0x3c7bbaf4	0.015364397
34	0xbefb7b6a	-0.49117595
35	0xbed2cf2c	-0.41173685
36	0xbeaea184	-0.34107602
37	0xbed8d92d	-0.42353192
38	0xbea75ce0	-0.32688046
39	0xbeb0e00f	-0.34545943
40	0xbedcc54b	-0.43119273
41	0xbf173924	-0.59071565
42	0xbec8c0df	-0.3920965
43	0xbed0b6db	-0.40764508
44	0xbd85bede	-0.06530546
45	0xbee1d554	-0.4410807
46	0xbe0987ae	-0.13430664
47	0xbf10a78a	-0.56505644
48	0xbc0ff57a	-0.0087865535
49	0xbf05d7c0	-0.52282333
50	0xbdf7e14f	-0.12103521
51	0xbf2acb33	-0.6671631
52	0xbe332ec0	-0.17498302
53	0xbf1319ed	-0.57461435
54	0xbdbe7104	-0.092989
55	0xbef10658	-0.47075152
56	0xbc83378d	-0.0160177
57	0xbeffec11	-0.49984792
58	0x3c80127e	0.015633818
59	0xbf1cf6c3	-0.6131403
60	0xbcbe1275	-0.02320216
61	0xbf1506d8	-0.5821357
62	0xbdda040c	-0.10645303
63	0xbe40a681	-0.18813516

pos_encoder.pe f4 [1, 2000, 64]
0	0x00000000	0.0
1	0x3f800000	1.0
2	0x00000000	0.0
3	0x3f800000	1.0
4	0x00000000	0.0
5	0x3f800000	1.0
6	0x00000000	0.0
7	0x3f800000	1.0
8	0x00000000	0.0
9	0x3f800000	1.0
10	0x00000000	0.0
11	0x3f800000	1.0
12	0x00000000	0.0
13	0x3f800000	1.0
14	0x00000000	0.0
15	0x3f800000	1.0
16	0x00000000	0.0
17	0x3f800000	1.0
18	0x00000000	0.0
19	0x3f800000	1.0
20	0x00000000	0.0
21	0x3f800000	1.0
22	0x00000000	0.0
23	0x3f800000	1.0
24	0x00000000	0.0
25	0x3f800000	1.0
26	0x00000000	0.0
27	0x3f800000	1.0
28	0x00000000	0.0
29	0x3f800000	1.0
30	0x00000000	0.0
31	0x3f800000	1.0
32	0x00000000	0.0
33	0x3f800000	1.0
34	0x00000000	0.0
35	0x3f800000	1.0
36	0x00000000	0.0
37	0x3f800000	1.0
38	0x00000000	0.0
39	0x3f800000	1.0
40	0x00000000	0.0
41	0x3f800000	1.0
42	0x00000000	0.0
43	0x3f800000	1.0
44	0x00000000	0.0
45	0x3f800000	1.0
46	0x00000000	0.0
47	0x3f800000	1.0
48	0x00000000	0.0
49	0x3f800000	1.0
50	0x00000000	0.0
51	0x3f800000	1.0
52	0x00000000	0.0
53	0x3f800000	1.0
54	0x00000000	0.0
55	0x3f800000	1.0
56	0x00000000	0.0
57	0x3f800000	1.0
58	0x00000000	0.0
59	0x3f800000	1.0
60	0x00000000	0.0
61	0x3f800000	1.0
62	0x00000000	0.0
63	0x3f800000	1.0
64	0x3f576aa4	0.84147096
65	0x3f0a5141	0.54030234
66	0x3f2e7ace	0.68156135
67	0x3f3b54b0	0.731761
68	0x3f087dba	0.53316844
69	0x3f58940d	0.8460091
70	0x3ed190f1	0.40930894
71	0x3f6992c6	0.91239583
72	0x3e9f393e	0.3109836
73	0x3f734e6b	0.9504153
74	0x3e708f25	0.23492105
75	0x3f78d5f1	0.9720145
76	0x3e35233a	0.17689219
77	0x3f7bf683	0.9842302
78	0x3e0825f3	0.13295726
79	0x3f7dba28	0.99112177
80	0x3dcc7576	0.099833414
81	0x3f7eb898	0.9950042
82	0x3d996f36	0.07491915
83	0x3f7f47d1	0.9971896
84	0x3d6636ae	0.05620449
85	0x3f7f9868	0.9984193
86	0x3d2cacfa	0.04215715
87	0x3f7fc5bd	0.999111
88	0x3d01815b	0.031617504
89	0x3f7fdf3c	0.99950004
90	0x3cc23ea5	0.023711512
91	0x3f7fed93	0.99971884
92	0x3c91ab42	0.017781857
93	0x3f7ff5a3	0.99984187
94	0x3c5a7a49	0.013334819
95	0x3f7ffa2c	0.99991107
96	0x3c23d657	0.009999833
97	0x3f7ffcb9	0.99995
98	0x3bf5b916	0.0074988706
99	0x3f7ffe28	0.99997187
100	0x3bb8445a	0.0056233825
101	0x3f7ffef7	0.9999842
102	0x3b8a2e5a	0.0042169513
103	0x3f7fff6b	0.9999911
104	0x3b4f3e1c	0.0031622713
105	0x3f7fffac	0.999995
106	0x3b1b6903	0.0023713715
107	0x3f7fffd1	0.9999972
108	0x3ae91520	0.0017782785
109	0x3f7fffe6	0.99999845
110	0x3aaec98b	0.0013335211
111	0x3f7ffff1	0.9999991
112	0x3a83126d	0.0009999998
113	0x3f7ffff8	0.9999995
114	0x3a449489	0.000749894
115	0x3f7ffffb	0.9999997
116	0x3a136a13	0.0005623411
117	0x3f7ffffd	0.9999998
118	0x39dd1721	0.00042169637
119	0x3f7fffff	0.99999994
120	0x39a5cb61	0.00031622782
121	0x3f7fffff	0.99999994
122	0x3978a80d	0.00023713727
123	0x3f800000	1.0
124	0x393a7753	0.00017782794
125	0x3f800000	1.0
126	0x390bd46d	0.00013335208
127	0x3f800000	1.0
128	0x3f68c7b7	0.9092974
129	0xbed51133	-0.41614684
130	0x3f7f5ad9	0.99748
131	0x3d914d53	0.070948265
132	0x3f66f20a	0.9021307
133	0x3edce8b2	0.43146282
134	0x3f3f3512	0.74690354
135	0x3f2a3902	0.66493237
136	0x3f17541b	0.5911271
137	0x3f4e7bec	0.8065784
138	0x3ee9d3b5	0.45669332
139	0x3f63be69	0.8896242
140	0x3eb247f6	0.34820527
141	0x3f6ffaa6	0.93741834
142	0x3e86f082	0.26355368
143	0x3f76f2f5	0.96464473
144	0x3e4b6ff8	0.19866931
145	0x3f7ae5a5	0.9800666
146	0x3e1900d3	0.1494172
147	0x3f7d204f	0.98877424
148	0x3de5d986	0.1122313
149	0x3f7e61f3	0.9936821
150	0x3dac85ae	0.08423935
151	0x3f7f170e	0.99644554
152	0x3d8170c8	0.063203394
153	0x3f7f7cf9	0.9980007
154	0x3d4230aa	0.04740969
155	0x3f7fb64e	0.9988755
156	0x3d11a55c	0.03555809
157	0x3f7fd68e	0.9993676
158	0x3cda7550	0.026667267
159	0x3f7fe8b1	0.99964434
160	0x3ca3d43e	0.019998666
161	0x3f7ff2e5	0.9998
162	0x3c75b751	0.014997319
163	0x3f7ff8a1	0.9998875
164	0x3c38439b	0.011246587
165	0x3f7ffbdb	0.99993676
166	0x3c0a2e0a	0.008433828
167	0x3f7ffdab	0.9999644
168	0x3bcf3dd8	0.006324511
169	0x3f7ffeb1	0.99998003
170	0x3b9b68e7	0.00474273
171	0x3f7fff43	0.99998873
172	0x3b691508	0.0035565514
173	0x3f7fff96	0.9999937
174	0x3b2ec980	0.0026670396
175	0x3f7fffc4	0.9999964
176	0x3b031268	0.0019999985
177	0x3f7fffdf	0.99999803
178	0x3ac49485	0.0014997876
179	0x3f7fffed	0.99999887
180	0x3a936a12	0.0011246821
181	0x3f7ffff5	0.99999934
182	0x3a5d171f	0.0008433926
183	0x3f7ffffa	0.99999964
184	0x3a25cb60	0.0006324556
185	0x3f7ffffd	0.9999998
186	0x39f8a80c	0.0004742745
187	0x3f7ffffe	0.9999999
188	0x39ba7753	0.00035565588
189	0x3f7fffff	0.99999994
190	0x398bd46d	0.00026670416
191	0x3f800000	1.0
192	0x3e1081c3	0.14112
193	0xbf7d7026	-0.9899925
194	0x3f473cde	0.7782725
195	0xbf20bfce	-0.6279267
196	0x3f7e45d7	0.9932532
197	0xbded7fab	-0.11596616
198	0x3f742163	0.95363444
199	0x3e9a1863	0.3009673
200	0x3f5009c2	0.8126489
201	0x3f152f58	0.58275366
202	0x3f2724b7	0.652904
203	0x3f41e7a2	0.7574407
204	0x3f022f6c	0.5085361
205	0x3f5c6d29	0.86104065
206	0x3ec768a7	0.3894703
207	0x3f6bc937	0.92103904
208	0x3e974e6c	0.2955202
209	0x3f7490ef	0.9553365
210	0x3e646de2	0.22307542
211	0x3f798c92	0.9748012
212	0x3e2beed7	0.16790329
213	0x3f7c5d9e	0.9858035
214	0x3e01332c	0.12617177
215	0x3f7df443	0.9920084
216	0x3dc1ffc0	0.094726086
217	0x3f7ed94f	0.99550337
218	0x3d919306	0.071081206
219	0x3f7f5a3a	0.9974705
220	0x3d5a694e	0.053323083
221	0x3f7fa2c3	0.9985773
222	0x3d23d1c5	0.039994974
223	0x3f7fcb90	0.99919987
224	0x3cf5b91f	0.0299955
225	0x3f7fe283	0.99955004
226	0x3cb84747	0.022494925
227	0x3f7fef6b	0.999747
228	0x3c8a31c6	0.016869437
229	0x3f7ff6ad	0.9998577
230	0x3c4f4446	0.012650555
231	0x3f7ffac1	0.99991995
232	0x3c1b6e0d	0.009486687
233	0x3f7ffd0d	0.999955
234	0x3be91d13	0.0071140616
235	0x3f7ffe58	0.9999747
236	0x3baecfa8	0.005334813
237	0x3f7fff11	0.99998575
238	0x3b831713	0.0040005534
239	0x3f7fff7a	0.999992
240	0x3b449b92	0.0029999954
241	0x3f7fffb5	0.9999955
242	0x3b136f60	0.0022496805
243	0x3f7fffd6	0.9999975
244	0x3add1f17	0.0016870227
245	0x3f7fffe8	0.99999857
246	0x3aa5d156	0.0012650888
247	0x3f7ffff3	0.9999992
248	0x3a78b110	0.00094868336
249	0x3f7ffff9	0.9999996
250	0x3a3a7e09	0.00071141176
251	0x3f7ffffc	0.99999976
252	0x3a0bd97e	0.0005334838
253	0x3f7ffffe	0.9999999
254	0x39d1bea4	0.00040005625
255	0x3f7fffff	0.99999994

transformer.layers.0.self_attn.in_proj_weight f4 [192, 64]
0	0x3e35d6a4	0.1775766
1	0x3da68d30	0.08132398
2	0xbe816c64	-0.25278008
3	0x3de837de	0.11338781
4	0x3de38fd3	0.11111417
5	0xbc9aba65	-0.018887708
6	0xbc72db8b	-0.014822851
7	0xbda980fe	-0.082765564
8	0xbe048a0f	-0.1294329
9	0xbd52ebc1	-0.051494364
10	0xbbc48569	-0.005997349
11	0x3df42043	0.11920216
12	0x3e71e56c	0.23622674
13	0xbc32399b	-0.010877992
14	0x3cf82e6f	0.030295579
15	0xbd5a66b7	-0.053320613
16	0x3e356ee0	0.17718077
17	0x3d2c8a2f	0.04212397
18	0x3dd799fe	0.105274186
19	0x3d5b5712	0.053549834
20	0xbc2cb4c1	-0.010541142
21	0xbd722bac	-0.05912368
22	0x3cd0c330	0.025483698
23	0xbd1aa08f	-0.037750777
24	0x3a639ed5	0.00086830306
25	0xbd54c161	-0.051942233
26	0x3e278df8	0.1636275
27	0x3d9063ae	0.070502624
28	0xbd9277b6	-0.07151739
29	0xbc6eda1e	-0.01457837
30	0x3d992c4d	0.07479153
31	0x3e1eb68a	0.1549932
32	0x3d011a31	0.03151912
33	0x3cb560bc	0.022140853
34	0xbe1f4f9c	-0.15557712
35	0x3bba6bb0	0.005689107
36	0xbe04e36e	-0.12977383
37	0xbd87ea3b	-0.06636473
38	0xbe017e4f	-0.12645839
39	0x3dd13b38	0.10216373
40	0x3cb8d23a	0.022561181
41	0xbd307851	-0.043083493
42	0xbe203bf0	-0.15647864
43	0x3d6cd88b	0.0578237
44	0xbdc8b928	-0.09800941
45	0x3d337077	0.043808427
46	0xbdfc886e	-0.123307094
47	0x3deb2c6c	0.11483082
48	0x3cc92cff	0.024557589
49	0xbe185e20	-0.14879656
50	0xbbae4ae0	-0.0053189844
51	0x3dbe1ab7	0.09282439
52	0x3ddd6c54	0.108116776
53	0xbdbff08b	-0.09372052
54	0x3b1b9685	0.002374084
55	0xbd9b935f	-0.07596468
56	0x3d9b1144	0.075716525
57	0xbbafe9e9	-0.0053684604
58	0x3c2ae584	0.010430697
59	0xbdcfd596	-0.1014816
60	0x3d4945db	0.049138885
61	0x3d2c8451	0.042118374
62	0x3e4b7fb9	0.19872941
63	0x3c4de9a6	0.012567913
64	0x3e066a01	0.13126375
65	0x3d6a9937	0.057275023
66	0x3daf9540	0.08573389
67	0x3e3db6aa	0.18526712
68	0x3d199e6b	0.037504595
69	0x3c720b30	0.014773175
70	0x3dbcea56	0.092243835
71	0x3e8cb57c	0.27482212
72	0xbe40a6b6	-0.18813595
73	0x3e086869	0.1332108
74	0xbd9a2f23	-0.07528522
75	0x3ca88910	0.020573169
76	0x3d48815d	0.048951495
77	0x3e1cd0f8	0.1531409
78	0xbd8e831e	-0.06958602
79	0x3e29c99f	0.16580819
80	0xbe8b781b	-0.2724007
81	0x3e5c3a21	0.2150655
82	0x3cd9a12b	0.026566109
83	0xbe13688a	-0.14395347
84	0xbd3359ca	-0.0437868
85	0x3d0569b9	0.032571528
86	0xbe2c185a	-0.16806164
87	0x3cb4b4db	0.022058895
88	0x3dcbf568	0.09958917
89	0x3d1e537f	0.038653847
90	0xbe4c757a	-0.19966689
91	0x3dd4331f	0.10361313
92	0xbe0e3b84	-0.13889891
93	0x3da54d73	0.08071413
94	0xbdf06058	-0.11737126
95	0xbe16e07d	-0.14734073
96	0xbe083c2f	-0.13304208
97	0xbd07b32d	-0.03312986
98	0x3d1b685d	0.037941325
99	0x3d91a06e	0.07110678
100	0x3e727925	0.23679025
101	0x3dfc7459	0.12326879
102	0x3d3a96b0	0.045553863
103	0xbe02ce2b	-0.1277396
104	0xbd766ad6	-0.06016048
105	0x3c9eceb0	0.019385666
106	0x3c924a6d	0.017857755
107	0x3d951e17	0.0728113
108	0xbd683000	-0.0566864
109	0x3d9cac38	0.076500356
110	0x3d9d8309	0.076910086
111	0x3dd4ff4e	0.10400258
112	0x3d069d96	0.03286513
113	0x3d85eddf	0.06539511
114	0x3d16e9c6	0.036844037
115	0x3d74209f	0.059601422
116	0x3cc03779	0.023463951
117	0x3de3d873	0.11125269
118	0xbea4b8f6	-0.32172364
119	0x3d3767ca	0.044776715
120	0xbe0457fe	-0.12924191
121	0x3e5acc37	0.21366964
122	0xbe570479	-0.209978
123	0x3d47de60	0.048796058
124	0x3d921ea6	0.07134752
125	0xbc8bcf78	-0.017066702
126	0x3cba1101	0.022713186
127	0xbdf81ffb	-0.12115475
128	0xbe427e33	-0.18993454
129	0x3cc8085d	0.02441805
130	0xbcc4bbbb	-0.024015298
131	0xba2d61cd	-0.0006614
132	0xbe1772fc	-0.14789957
133	0x3e873c84	0.26413357
134	0x3d963524	0.073343545
135	0xbdeb25f0	-0.114818454
136	0x3d2e540a	0.042560615
137	0xbe457ad0	-0.1928513
138	0x3e01b42d	0.12666388
139	0x3e437a54	0.19089633
140	0xbe1fbd66	-0.15599594
141	0x3cc3ccda	0.023901392
142	0xbd7dad59	-0.061932895
143	0x3da45516	0.08024041
144	0x3e8c23a9	0.27370957
145	0x3d991af9	0.07475848
146	0xbe5a86c2	-0.21340469
147	0x3cab06d1	0.020877274
148	0xbdeee4cf	-0.116647355
149	0x3e532bf4	0.20622236
150	0xbda7b4fb	-0.08188816
151	0xbe1113ce	-0.14167711
152	0xbdfbd3e1	-0.12296272
153	0xbdb9119c	-0.09036562
154	0x3dd710c3	0.10501244
155	0xbed42512	-0.41434532
156	0x3e5fe7fc	0.21865839
157	0xbe529a4e	-0.20566675
158	0x3e219b95	0.15782006
159	0x3e565359	0.20930232
160	0x3d8b487a	0.06800933
161	0x3b08bc43	0.0020864166
162	0x3d77c7d7	0.060493317
163	0x3de33e35	0.110958494
164	0xbe06f57a	-0.1317958
165	0xbcfdff61	-0.031005563
166	0xbd0d80e2	-0.03454674
167	0xbd940471	-0.0722741
168	0x3d919d95	0.071101345
169	0x3e632c61	0.22184898
170	0xbb974c08	-0.004617218
171	0x3cf53814	0.029933967
172	0x3b7c9fe5	0.0038547453
173	0xbe2d40ad	-0.16919203
174	0x3cad486f	0.021152703
175	0x3d650764	0.05591525
176	0xbcb515d3	-0.022105133
177	0xbe37a0fa	-0.17932501
178	0xbd33df36	-0.043914042
179	0xbd63bda2	-0.05560077
180	0x3e4d4b27	0.200482
181	0x3d366d0a	0.04453758
182	0xbda298f3	-0.07939329
183	0xbd993ffe	-0.07482909
184	0xbd0aa597	-0.033849325
185	0xbe121001	-0.14263918
186	0xbcfbd788	-0.030742422
187	0xbd284839	-0.041084502
188	0xbd449fa9	-0.048003826
189	0xbcd9beb5	-0.026580194
190	0xbe9d8d8d	-0.30772057
191	0xbd4ba61a	-0.049718954
192	0x3cc51f18	0.024062678
193	0x3bf1ddd4	0.0073811803
194	0x3d28af45	0.041182775
195	0x3dac38da	0.08409281
196	0x3ec44094	0.3833052
197	0xbdf6eeb5	-0.120572485
198	0x3d63a5b8	0.055577964
199	0x3dc8ae41	0.09798861
200	0xbc07d842	-0.008291306
201	0xbdba0417	-0.09082811
202	0x3ca0383f	0.01955807
203	0x3df81f26	0.12115316
204	0x38e8e4db	0.0001110525
205	0x3ced35e5	0.028956363
206	0xbd8d3f37	-0.06896823
207	0x3e0fe4e3	0.14052157
208	0xbc81b45f	-0.015833078
209	0x3e262e84	0.16228682
210	0x3da797a2	0.081832185
211	0xbd30077a	-0.04297588
212	0xbd93854a	-0.07203157
213	0x3e84bf20	0.25927067
214	0xbe561957	-0.20908104
215	0x3d7c5af9	0.061610196
216	0xbe184e67	-0.14873658
217	0x3db5518c	0.088534445
218	0xbd909e41	-0.070614345
219	0xbe541488	-0.20710957
220	0xbe49c1c0	-0.19702816
221	0x3d677ce5	0.056515593
222	0x3d61f369	0.055163775
223	0xbda3029b	-0.07959481
224	0xbe3fdbd8	-0.18736207
225	0x3df485a5	0.11939553
226	0xbc877d0d	-0.016539121
227	0xbe842d84	-0.25815976
228	0x3c225b60	0.009909481
229	0x3e2bcfb7	0.16778456
230	0xbcad750c	-0.021173976
231	0xbd16c248	-0.036806375
232	0xbcd506b7	-0.026004178
233	0x3cd4d14d	0.025978709
234	0x3e080185	0.1328183
235	0x3d90cda9	0.070704766
236	0x3e26c58b	0.16286294
237	0xbe4d967b	-0.20076935
238	0x3db991eb	0.09061035
239	0x3dcb0910	0.09913838
240	0xbd2ad59a	-0.041707613
241	0x3e4228dc	0.18960899
242	0xbceef6d4	-0.029170431
243	0x3c84877b	0.016177883
244	0x3b0297c2	0.001992688
245	0x3d512f8a	0.051070727
246	0xbe613831	-0.21994092
247	0xbd5b7bc1	-0.053584818
248	0x3d5ee805	0.05442049
249	0xbde0aacf	-0.10970079
250	0x3e27387a	0.16330138
251	0xbdcbae3f	-0.09945344
252	0x3dd07ab5	0.101796545
253	0x3d548ff4	0.051895097
254	0x3bef6564	0.007305788
255	0x3dc63958	0.09678906

transformer.layers.0.self_attn.in_proj_bias f4 [192]
0	0xbd7d6b6e	-0.06187003
1	0x3d6ed93f	0.05831265
2	0xbcb2ea7a	-0.021840323
3	0xbcde1dbf	-0.027113793
4	0x3ec6bb6a	0.3881486
5	0x3d558bb8	0.0521352
6	0x3b2c26e0	0.0026268288
7	0x3d7a7d59	0.061154697
8	0xbc9fa3f9	-0.019487368
9	0x3c50e6fa	0.012750382
10	0xbdc27b74	-0.09496203
11	0x3e94f60d	0.29093972
12	0x3d14d472	0.036335416
13	0xbe282781	-0.1642132
14	0x3ef69f40	0.48168373
15	0xbe0819b5	-0.13291056
16	0xbcab0509	-0.020876424
17	0x3cedfa4b	0.029050013
18	0x3e61a64c	0.22036093
19	0x3da5b5d9	0.08091325
20	0x3debd71b	0.115156375
21	0xbc7c97f7	-0.015417091
22	0x3dde4677	0.10853284
23	0x3e2ee384	0.17078978
24	0x3daf55a9	0.0856126
25	0xbca8d14b	-0.020607611
26	0xbe8dc0ec	-0.2768625
27	0x3d20550b	0.039143603
28	0xbccaddbd	-0.024763936
29	0x39a7fd12	0.00032041274
30	0xbd86c234	-0.0658001
31	0xbd9eb8f6	-0.07750122
32	0x3d9e76cb	0.07737502
33	0x3ca99fd3	0.020706093
34	0xbe3ea344	-0.18616968
35	0x3e31dfae	0.17370483
36	0x3dfa0912	0.12208761
37	0xbd7d0c9c	-0.061779603
38	0x3e51089f	0.20413445
39	0xbd97f4eb	-0.07419761
40	0x3db4a040	0.08819628
41	0xbddb7d43	-0.10717251
42	0x3e7095c4	0.23494631
43	0xbe4aadf5	-0.19792922
44	0xbd0d520b	-0.03450207
45	0xbe1dc7e2	-0.1540828
46	0xbe840307	-0.2578356
47	0x3e4a9486	0.1978322
48	0x3e0c39ee	0.13693973
49	0xbc28bf13	-0.010299462
50	0xbed55f19	-0.41674116
51	0xbe45c3a6	-0.19312915
52	0x3dd87e2b	0.1057094
53	0xbe58eba6	-0.21183643
54	0xbd9e70d4	-0.07736364
55	0xbce11503	-0.02747584
56	0xbdb47956	-0.088122055
57	0x3ed0cd1b	0.40781483
58	0x3db58d18	0.08864802
59	0x3e6ae0f8	0.22937381
60	0xbd14e0a7	-0.036347058
61	0x3de91bc0	0.11382246
62	0xbe217666	-0.15767822
63	0xbdc34c45	-0.09536032
64	0xb6638868	-3.3905035e-06
65	0xb91beccb	-0.00014870164
66	0xb9b3e3f3	-0.00034311376
67	0xb940b106	-0.00018376493
68	0xb9063454	-0.0001279873
69	0x3673529a	3.6257902e-06
70	0x39f9d6fc	0.00047653157
71	0x393f1bbc	0.00018225511
72	0x39ba0acb	0.00035484726
73	0x39451243	0.00018794187
74	0x376dbecb	1.4170723e-05
75	0x3985c674	0.00025515596
76	0xb8d76360	-0.00010270509
77	0x38f2f91e	0.00011585861
78	0x3a40f8a1	0.00073612673
79	0x3998bc0d	0.00029131808
80	0xb91674c0	-0.00014348608
81	0xba41acf3	-0.0007388137
82	0xb9a3bac7	-0.00031228943
83	0xb7ffe51e	-3.050506e-05
84	0xba2b239f	-0.000652844
85	0xb9989f75	-0.00029110504
86	0xba0f66bc	-0.00054703257
87	0x395e72a3	0.00021214275
88	0xb9e37ac3	-0.0004338828
89	0x39ac009d	0.00032806853
90	0xb8f6bd6c	-0.00011765477
91	0x3981c98f	0.0002475497
92	0x39bfc311	0.00036575695
93	0x3a5542ee	0.00081352785
94	0xb8920e65	-6.964504e-05
95	0xb9f3d8a2	-0.00046509976
96	0xb8d00b95	-9.92037e-05
97	0xb64c5de6	-3.0453025e-06
98	0xb656e724	-3.2023027e-06
99	0x39bb61b1	0.00035740205
100	0xb993e82d	-0.0002821101
101	0xb980c9f8	-0.0002456454
102	0xb8967ec4	-7.176169e-05
103	0x38f2a9e9	0.000115711075
104	0x381f3024	3.795339e-05
105	0xb92d99e8	-0.000165559
106	0xb98694b1	-0.00025669255
107	0x39cab58b	0.00038663702
108	0xb930a808	-0.00016847264
109	0x3895b4f4	7.138579e-05
110	0x39990f66	0.00029193907
111	0xb8be0b8e	-9.062058e-05
112	0xb7b55e75	-2.1620866e-05
113	0xba14ad83	-0.0005671607
114	0xb6d6c92c	-6.4011165e-06
115	0x397c9095	0.00024086454
116	0x37c9460e	2.3993689e-05
117	0xb74778c4	-1.1889442e-05
118	0xb920ae7b	-0.00015323788
119	0x38cfebd7	9.914458e-05
120	0x3a0ecbb4	0.0005447224
121	0xba8b61a1	-0.0010633954
122	0xb9593553	-0.00020714597
123	0xba45d67b	-0.00075469137
124	0xb96d6a12	-0.00022641596
125	0x38e6ba1c	0.0001100192
126	0xb953fbf9	-0.00020216395
127	0xb9296d35	-0.00016157779
128	0x3d3594a7	0.04433122
129	0xbe02be53	-0.12767915
130	0x3c52faf8	0.012877218
131	0xbce02ec0	-0.027366042
132	0xbc0139a8	-0.0078872815
133	0x3dd0a93b	0.10188528
134	0xbdf121a7	-0.11773997
135	0xbd573aa2	-0.05254615
136	0x3da857cd	0.08219872
137	0x3b050fe8	0.002030367
138	0x3cc52c8b	0.024069091
139	0x3cb9ae71	0.022666188
140	0x3c3404d7	0.010987482
141	0x3e20ce74	0.15703756
142	0xbda576d4	-0.08079305
143	0x3cd35959	0.02579944
144	0x3c9195a0	0.017771542
145	0x3b274498	0.0025523063
146	0x3d2b4c52	0.04182083
147	0xbde74b25	-0.112936296
148	0xbdab64c9	-0.083688326
149	0x3e01d162	0.1267753
150	0xbdce4456	-0.10071628
151	0x3e4dd14d	0.20099373
152	0xbdee8bb6	-0.116477415
153	0xbd9823fd	-0.07428739
154	0xbe26a734	-0.1627472
155	0x3e2267cd	0.1585991
156	0xbe4af406	-0.1981965
157	0xbcbdd503	-0.023172861
158	0x3d4a9a4d	0.04946356
159	0xbd06c75e	-0.032904975
160	0xba511a21	-0.0007976611
161	0xbde5f317	-0.11228006
162	0x3d8ad4c3	0.06778862
163	0xbd8dc623	-0.06922557
164	0xbc8e6da9	-0.017386274
165	0x3e55060d	0.2080309
166	0x3cbd3b89	0.023099678
167	0x3da2ab1e	0.07942794
168	0xbd8198cc	-0.06327972
169	0x3d01ee44	0.03172137
170	0x3d643194	0.055711344
171	0xbd983cc7	-0.07433467
172	0x3de323e0	0.11090827
173	0x3b0657c0	0.002049908
174	0xbba2dd90	-0.00497026
175	0xbd265897	-0.04061183
176	0x3cca8809	0.02472307
177	0x3c67a0ba	0.014137441
178	0xbdd3e962	-0.103472486
179	0xbd76628c	-0.060152575
180	0x3d6a74a3	0.05724014
181	0xbc740ba3	-0.014895353
182	0xbd936a79	-0.071980424
183	0x3da20fb1	0.07913149
184	0x3cd70678	0.026248202
185	0xbde2ca74	-0.11073771
186	0xbd104f95	-0.035232145
187	0x3d87230a	0.0659848
188	0xbd6113f1	-0.05495066
189	0x3d4b11ee	0.049577646
190	0xbdabb3d3	-0.08383908
191	0xbcf661bf	-0.030075906

transformer.layers.0.self_attn.out_proj.weight f4 [64, 64]
0	0xbd95ab8f	-0.07308113
1	0x3e1c7039	0.15277185
2	0xbddbff31	-0.10742033
3	0x3d17fe97	0.03710803
4	0x3d8cc80f	0.06874096
5	0x3ca032b9	0.019555436
6	0x3e011db5	0.12608989
7	0x3df35bcb	0.118827425
8	0xbd9cf8da	-0.07664652
9	0xbd9dbd42	-0.07702114
10	0xbde5751f	-0.1120398
11	0x3cb79a5e	0.022412475
12	0x3e0f72ff	0.14008711
13	0xbe46c71f	-0.19411896
14	0xbcf441ea	-0.029816587
15	0xbcbc6858	-0.022998974
16	0xbbcf418f	-0.006324954
17	0xbda1d21b	-0.079014026
18	0xbd8e350a	-0.0694371
19	0xbe97aeb8	-0.29625487
20	0x3dad74e0	0.08469558
21	0xbe5307b0	-0.20608401
22	0x3c5380f8	0.0129091665
23	0x3ca7420e	0.02041724
24	0xbc3cbdf0	-0.011519894
25	0x3dcda158	0.100405395
26	0xbd38c731	-0.04511184
27	0xbddcbf94	-0.10778728
28	0x3dad5182	0.08462812
29	0x3e994cc7	0.2994139
30	0x3dc138e0	0.09434676
31	0x3cf6b781	0.030116798
32	0xbd7cb459	-0.06169543
33	0xbe14d4dc	-0.14534324
34	0xbe2648ff	-0.16238783
35	0xbdc5fd4f	-0.096674554
36	0xbe13f745	-0.14449795
37	0x3d05a3d4	0.03262694
38	0xbe5b0a1f	-0.2139058
39	0xbd100427	-0.03516021
40	0xbd148c57	-0.03626665
41	0x3e4f95af	0.20271944
42	0x3d5b1b7e	0.053493015
43	0xbd28d423	-0.041217934
44	0x3e01adaf	0.12663911
45	0x3d4cd899	0.05001125
46	0x3cb2eb9b	0.021840861
47	0x3d828871	0.063736804
48	0x3e9aea94	0.30257094
49	0xbcca6f2d	-0.024711216
50	0x3c8234b0	0.015894264
51	0xbe0650f1	-0.13116814
52	0xbd85aa83	-0.06526663
53	0x3d7aa988	0.061196834
54	0xbe33aa9c	-0.17545551
55	0xbdb35406	-0.087562606
56	0xbc7ca662	-0.015420528
57	0x3d1f3829	0.038871918
58	0x3ca67a97	0.020322127
59	0xbd8d9aa4	-0.06914261
60	0xbe7e463e	-0.24831483
61	0xbb6c819a	-0.003608799
62	0x3e033137	0.12811743
63	0xbcf0fe16	-0.029418033
64	0xbda8755d	-0.0822551
65	0x3e112473	0.1417406
66	0xbe140ccf	-0.14458011
67	0x3e173889	0.1476766
68	0xbd1985a4	-0.037480965
69	0x3d45b12e	0.048264675
70	0x3cea71e3	0.028618759
71	0xbd059e84	-0.032621875
72	0x3dea500b	0.11441048
73	0xbce062f7	-0.02739094
74	0xbdb389ee	-0.087665424
75	0x3cbb8929	0.022892551
76	0xbe6315c0	-0.22176266
77	0x3ebe590d	0.37177315
78	0x3e08945b	0.13337843
79	0x3c657789	0.01400555
80	0xbea7d6c8	-0.32781053
81	0x3d473cad	0.04864185
82	0x3ddb6ce3	0.10714128
83	0xbdb78508	-0.089609206
84	0xbd44a44c	-0.04800825
85	0x3df62f1d	0.12020705
86	0x3e307a37	0.17234121
87	0xbc42422b	-0.011856596
88	0xbc7789e1	-0.0151085565
89	0xbd84e613	-0.06489196
90	0xbd31f30c	-0.04344468
91	0xbcc3c057	-0.023895426
92	0x3e0ac833	0.13552932
93	0x3d804679	0.062634416
94	0xbd54c501	-0.05194569
95	0xbddd5f35	-0.10809175
96	0xbd4f6042	-0.050628908
97	0x3e0362f9	0.12830724
98	0x3e60c998	0.21951902
99	0x3ddd00d0	0.107911706
100	0x3d97cc31	0.07411993
101	0x3ccafa6d	0.024777615
102	0x3eef0621	0.46684363
103	0x3dc43b11	0.095815785
104	0x3d15d6a5	0.036581654
105	0xbdcc891e	-0.099870905
106	0xbe045282	-0.12922099
107	0xbd9d7cbc	-0.07689807
108	0x3d317127	0.0433208
109	0xbcdc053d	-0.026857967
110	0xbd8e2054	-0.0693976
111	0x3d9705d3	0.07374158
112	0xbbba5bf4	-0.005687231
113	0xbbd161d9	-0.006389838
114	0x3e4a57be	0.19760033
115	0x3e3c22d3	0.1837266
116	0x3dc9f219	0.098606296
117	0xbd4e55bf	-0.050374743
118	0x3e037cd2	0.12840584
119	0xbd0e3849	-0.034721646
120	0xbde7e691	-0.11323274
121	0x3dc01b2e	0.09380184
122	0xbdc561a8	-0.09637767
123	0xbe22d2c5	-0.15900715
124	0x3ddbf6ec	0.10740456
125	0xbe51290c	-0.20425814
126	0x3e26524c	0.16242331
127	0x3e2fcf83	0.17169003
128	0xbda8bb16	-0.08238809
129	0xbdbc5df3	-0.09197607
130	0xbdddb813	-0.10826125
131	0x3e01eb7e	0.1268749
132	0x3dc9e76b	0.098585926
133	0x3c688749	0.014192411
134	0x3c191bb6	0.009344986
135	0x3ca46739	0.020068752
136	0xbc8190ed	-0.015816176
137	0x3c9850ed	0.018593276
138	0xbd457ba0	-0.0482136
139	0x3e5865b2	0.21132544
140	0xbd6625e8	-0.056188494
141	0xbc446d99	-0.011989021
142	0x3e8015d6	0.2501666
143	0xbc1a5b47	-0.009421176
144	0xbdeee520	-0.11664796
145	0xbe75ea4d	-0.2401516
146	0xbd9e6145	-0.077333964
147	0x3df7c05d	0.12097237
148	0xbd0a1554	-0.033711746
149	0xbd0e9445	-0.03480937
150	0x3e498b3b	0.19682018
151	0x3d493b9b	0.04912911
152	0xbe93d6c1	-0.28874782
153	0xbe3dc0b8	-0.18530548
154	0x3de79615	0.11307923
155	0x3cec60fb	0.028854838
156	0x3e186b6f	0.14884733
157	0xbe0b7f7f	-0.13622855
158	0x3d2ef926	0.042718075
159	0x3c5b7106	0.013393646
160	0xbdc78c9a	-0.097436145
161	0xbd8d6fa0	-0.069060564
162	0xbcea72b5	-0.02861915
163	0x3e91071c	0.28325737
164	0x3d1c1acd	0.038111497
165	0xbb9b8274	-0.004745776
166	0xbd78792a	-0.060662426
167	0x3e399a2d	0.1812522
168	0xbe3c8b75	-0.18412574
169	0x3e7054c1	0.23469831
170	0xbd0a6255	-0.033785183
171	0x3d8543ac	0.06507048
172	0xbc50cd98	-0.01274433
173	0xbe2efb72	-0.17088106
174	0xbd5b1c5c	-0.053493842
175	0xba78a844	-0.0009485523
176	0x3de2039c	0.11035845
177	0xbdbea6b6	-0.09309141
178	0xbd3cc2b3	-0.046084117
179	0xbe25f84a	-0.16207996
180	0xbde67a6b	-0.11253818
181	0xbdff8ac4	-0.12477639
182	0x3d40e74d	0.047095586
183	0x3d916990	0.071002126
184	0x3cde93b2	0.027170036
185	0xbe8d4325	-0.2759029
186	0x3d76ad48	0.060223848
187	0xbe0d77c6	-0.13815221
188	0x3db46679	0.088086076
189	0xbc6e65ab	-0.014550607
190	0xbd028799	-0.031867597
191	0xbda82287	-0.082097106
192	0xbe071453	-0.13191347
193	0xbcbd9108	-0.023140445
194	0x3e536a35	0.20645984
195	0x3e632509	0.22182097
196	0xbcf8e976	-0.03038476
197	0xbddeeea2	-0.10885359
198	0xbdfc442b	-0.123176895
199	0x3df9b880	0.12193394
200	0xbda7a7a4	-0.08186272
201	0x3df31692	0.11869539
202	0xbe35538c	-0.17707652
203	0xbd211eb6	-0.03933593
204	0xbdbcba78	-0.092152536
205	0xbdd36358	-0.10321683
206	0x3df06b6f	0.11739241
207	0xbe00189f	-0.12509392
208	0x3dcd57a8	0.10026485
209	0xbe385b58	-0.18003595
210	0xbdb664f3	-0.08905973
211	0xbe2dcb83	-0.16972165
212	0x3c86138e	0.016366746
213	0xbd92b443	-0.071632884
214	0x3e75e7fd	0.24014278
215	0xbeab5499	-0.3346298
216	0xbdb6bde1	-0.08922935
217	0x3e4ae996	0.19815668
218	0xbdb95df2	-0.09051122
219	0xbd37514e	-0.044755273
220	0x3d387cd1	0.04504091
221	0x3e0dc265	0.13843687
222	0xbe4e5f55	-0.20153554
223	0x3e06416d	0.13110895
224	0xbc06ef9e	-0.00823584
225	0xbdbd9efe	-0.09258841
226	0x3eae0f8c	0.33996236
227	0xbe55b881	-0.20871164
228	0xbe9a428b	-0.30128893
229	0xbc776111	-0.015098826
230	0xbd035283	-0.03206111
231	0xbc735c7c	-0.014853593
232	0x3d9fd60d	0.07804499
233	0xbe371fe7	-0.17883264
234	0x3e5ac31f	0.21363495
235	0xbdd7885b	-0.105240546
236	0xbec53175	-0.38514295
237	0xbe64b27b	-0.2233371
238	0x3e2ee33f	0.17078875
239	0x3ced3ade	0.028958734
240	0xbdb7f4bf	-0.089822285
241	0x3e0b7ccd	0.13621826
242	0x3e437cc9	0.1909057
243	0x3e8178be	0.2528743
244	0x3c80fb51	0.015744837
245	0x3e256413	0.16151457
246	0x3bed9cb2	0.0072513456
247	0xbdd7ff84	-0.105467826
248	0x3df4861d	0.119396426
249	0x3daeeaae	0.08540855
250	0x3deab7c1	0.114608295
251	0x3e35da44	0.17759043
252	0x3e238b0f	0.15971015
253	0x3e24c8b2	0.16092184
254	0xbe3227f3	-0.17398052
255	0x3e0fc8ff	0.14041518

transformer.layers.0.self_attn.out_proj.bias f4 [64]
0	0xbe09c2a3	-0.13453154
1	0xbebd7521	-0.37003425
2	0xbefa82dc	-0.48927963
3	0xbee230ad	-0.44177762
4	0xbeb5ed28	-0.35532498
5	0xbdf5d542	-0.12003566
6	0xbefe77eb	-0.49700865
7	0xbe097c01	-0.1342621
8	0xbd1d1361	-0.03834856
9	0xbe77c6ea	-0.24196973
10	0xbeea206c	-0.4572786
11	0xbdbf9bf7	-0.0935592
12	0xbe6c218e	-0.23059675
13	0xbdfe0341	-0.124029644
14	0xbe344643	-0.17604928
15	0xbead9605	-0.33903518
16	0xbdda2b6d	-0.10652814
17	0xbea968cd	-0.3308777
18	0xbeec77fe	-0.46185297
19	0xbf3af9ce	-0.7303742
20	0x3dc0de14	0.09417358
21	0xbe4b23ed	-0.19837923
22	0xbea65ee9	-0.32494286
23	0xbda2fe65	-0.07958678
24	0xbe2b8ebb	-0.16753666
25	0xbe9cf219	-0.30653456
26	0xbea1097f	-0.31452557
27	0xbe0aedee	-0.13567325
28	0xbf1857b1	-0.59508806
29	0xbd391900	-0.045189857
30	0x3df9c6cc	0.121961206
31	0xbe0d2947	-0.13785277
32	0x3e0b268e	0.13588926
33	0x3c8152c1	0.01578653
34	0x3f10f256	0.56619775
35	0xbe641811	-0.22274806
36	0x3e8c7cda	0.27439004
37	0x3cc9a144	0.02461303
38	0x3e0024ae	0.12513992
39	0x3ebeff41	0.37304118
40	0xbeac74db	-0.33682904
41	0x3f275aea	0.653731
42	0x3e37858d	0.1792204
43	0x3ee438e4	0.44574654
44	0xbe9eed8e	-0.31040615
45	0x3f350570	0.7071142
46	0xbebc3ab8	-0.3676355
47	0x3e1c7894	0.15280372
48	0x3df540b5	0.119752325
49	0x3e912903	0.28351602
50	0xbec28c5a	-0.37997705
51	0x3e89b11e	0.26892942
52	0xbe87161f	-0.26384065
53	0x3f2455ae	0.64193237
54	0xbda33b48	-0.079702914
55	0x3edb0e7c	0.42784488
56	0xbd374f95	-0.04475363
57	0x3f08b177	0.5339579
58	0xbe53929d	-0.20661397
59	0x3f05fe4b	0.52341145
60	0xbdff9535	-0.12479631
61	0x3f2add32	0.6674377
62	0xbee4e012	-0.44702202
63	0x3e0bcdd5	0.13652737

transformer.layers.0.linear1.weight f4 [128, 64]
0	0x3e2d3853	0.16916017
1	0x3eacee0b	0.33775362
2	0x3d6f12ff	0.058367725
3	0xbd8142b8	-0.06311554
4	0x3d04d98e	0.03243404
5	0xbd6340cc	-0.055481717
6	0x3e87e54f	0.26542136
7	0x3d9f1b5f	0.077688925
8	0x3cfa9f7d	0.030593628
9	0x3db18788	0.08668429
10	0x3ad5c97c	0.0016310657
11	0x3d6b7760	0.05748689
12	0x3d922bbe	0.071372494
13	0xbe67334a	-0.22578159
14	0x3e421262	0.18952325
15	0x3dcdf636	0.10056727
16	0x3e61b86e	0.2204301
17	0x3e6104e2	0.21974519
18	0x3d6f0ee2	0.058363803
19	0x3eef634b	0.46755442
20	0x3dd25222	0.10269572
21	0x3da90523	0.08252933
22	0x3e22d8c6	0.15903005
23	0x3d6f44a7	0.05841508
24	0x3b47f998	0.003051376
25	0xbd728ee5	-0.059218306
26	0xbe19fe85	-0.15038498
27	0x3ca78c11	0.020452531
28	0x3e7cf0f5	0.24701293
29	0xbe82fe45	-0.25584617
30	0xbe313ad9	-0.17307605
31	0xbeab1c96	-0.33420247
32	0xbe04bf97	-0.1296371
33	0xbe825fbc	-0.25463665
34	0xbe3a8972	-0.18216494
35	0xbe0e63d7	-0.13905273
36	0xbccdebd1	-0.02513686
37	0x3e21383e	0.15744111
38	0x3e4248ff	0.18973158
39	0x3d158bc6	0.03651025
40	0x3e0ad536	0.13557896
41	0xbe45249b	-0.19252245
42	0x3cfb09d4	0.030644335
43	0xbcff74d4	-0.031183638
44	0xbd5320fe	-0.051545136
45	0xbe947a08	-0.28999352
46	0xbe025b6a	-0.12730184
47	0xbe69dbac	-0.22837704
48	0xbe1e5e1f	-0.15465592
49	0x3d01c5e1	0.031682853
50	0x3d951c2c	0.07280764
51	0xbe5588bd	-0.20852943
52	0xbe20e260	-0.15711355
53	0xbe216e39	-0.15764703
54	0xbdb84bf1	-0.0899886
55	0xbddfdf3e	-0.10931252
56	0xbe1b4647	-0.15163527
57	0xbe92cdef	-0.2867274
58	0xbe101368	-0.14069903
59	0xbdb973b5	-0.090552725
60	0x3e0a7449	0.13520922
61	0xbda92c3b	-0.082603894
62	0x3d3561c5	0.044282693
63	0x3e9cf459	0.30655172
64	0x3d457a27	0.048212197
65	0xbddadf68	-0.106871426
66	0x39cfdd11	0.00039646824
67	0x3e3fab8e	0.18717787
68	0x3e2dec92	0.16984776
69	0x3e7d2cf0	0.24724174
70	0x3d652115	0.055939753
71	0x3e4b24a3	0.19838195
72	0x3ec723c6	0.3889448
73	0xbdd1d260	-0.10245204
74	0x3e2fc912	0.17166546
75	0x3e1c2dca	0.15251842
76	0xbda7db1a	-0.08196087
77	0xbe1f7808	-0.15573132
78	0xbe7dd6d7	-0.24788986
79	0x3c71cced	0.014758331
80	0xbdad3055	-0.08456484
81	0xbdce7c32	-0.10082282
82	0xbdda62ca	-0.10663374
83	0x3d98177b	0.074263535
84	0xbe5d8c7e	-0.21635625
85	0x3e5ca1e6	0.21546134
86	0x3e684247	0.22681533
87	0xb9a41f4e	-0.0003130384
88	0xbdc480b5	-0.095948614
89	0x3ce6ea27	0.028187824
90	0x3aede2a0	0.0018149205
91	0x3e48bd7a	0.1960353
92	0x3dd83b1a	0.10558148
93	0x3c04a821	0.008096726
94	0x3cdc71e2	0.026909772
95	0x3d245310	0.040118277
96	0x3d557b3e	0.052119486
97	0xbea1eaa2	-0.31624323
98	0xbdfb7ebd	-0.12280033
99	0x3da65b51	0.08122886
100	0xbd25d0a0	-0.040482163
101	0xbe2c7843	-0.16842751
102	0x3e7b94ad	0.24568434
103	0xbe566644	-0.20937449
104	0x3e4e8354	0.20167285
105	0x3d30e45c	0.04318653
106	0x3d9a233c	0.07526252
107	0xbe111c62	-0.14170983
108	0x3e055b96	0.13023219
109	0xbea9544c	-0.33072126
110	0x3e1435fd	0.1447372
111	0xbd45f221	-0.048326615
112	0xbe40311d	-0.18768735
113	0x3e0eba46	0.13938245
114	0x3e902ee8	0.28160787
115	0x3df25365	0.118323125
116	0x3cd62455	0.026140371
117	0xbeb215b0	-0.3478217
118	0x3d36bb4a	0.044612207
119	0xbe918c4f	-0.2842736
120	0xbe017ea3	-0.12645964
121	0xbf0847e5	-0.532347
122	0x3d69134b	0.056903165
123	0x3c6b71b2	0.014370369
124	0xbe02b371	-0.12763764
125	0xbdae60e2	-0.08514573
126	0x3e9f116b	0.31067976
127	0xbc830ac2	-0.01599634
128	0xbe3e4c78	-0.18583858
129	0xbe284b25	-0.16434915
130	0x3e17de54	0.14830905
131	0x3eb63539	0.3558748
132	0xbe9258cf	-0.2858338
133	0x3d5dabfb	0.05411909
134	0xbce54fbd	-0.027992124
135	0x3e4e0a09	0.20121016
136	0xbe3d7f57	-0.18505608
137	0xbe2a9612	-0.1665881
138	0x3e62010f	0.22070716
139	0xbebbb8c0	-0.3666439
140	0xbe9789cc	-0.29597318
141	0x3e5af13a	0.21381083
142	0xbbef371a	-0.00730027
143	0xbdd26ce5	-0.10274676
144	0x3e30f835	0.17282183
145	0x3d3345ea	0.043767847
146	0xbd8ca412	-0.068672314
147	0x3e9179a1	0.28413108
148	0xbe075e0f	-0.13219474
149	0x3e018d11	0.12651469
150	0x3e9cf125	0.3065273
151	0x3d8e7473	0.06955805
152	0x3e803c7a	0.2504614
153	0x3e07b74a	0.13253513
154	0x3e4a6176	0.19763741
155	0x3b5534c6	0.0032532676
156	0x3ed7c959	0.42145804
157	0x3e3e1eb7	0.18566404
158	0xbd75286f	-0.059853014
159	0xbdb4a3e8	-0.08820325
160	0xbde13c9e	-0.1099789
161	0x3d759825	0.05995955
162	0xbd2f0c85	-0.04273655
163	0x3de55253	0.11197343
164	0x3d807a16	0.06273286
165	0x3e49b546	0.19698057
166	0x3da7f727	0.082014374
167	0xbe8051a2	-0.2506228
168	0x3cc8f7d6	0.02453224
169	0xbe4aeba2	-0.1981645
170	0xbe56804b	-0.20947377
171	0x3ce5a0f4	0.02803085
172	0x3da2948b	0.079384886
173	0xbede919f	-0.43470475
174	0x3d54f274	0.051989034
175	0xbddb027e	-0.10693835
176	0x3d5241c2	0.051332243
177	0x3db9fda7	0.090815835
178	0x3f1267b0	0.57189465
179	0xbe3bf239	-0.1835412
180	0xbd4d18ec	-0.050072595
181	0xbe54fedb	-0.20800345
182	0x3e7884ea	0.24269453
183	0xbe1f7086	-0.15570268
184	0x3cef9c75	0.02924941
185	0xbd8ae654	-0.06782213
186	0xbe42ef34	-0.19036561
187	0x3da67041	0.081268795
188	0x3d0a8bf1	0.033824865
189	0xbe805eef	-0.2507243
190	0xbd733380	-0.059375286
191	0xbd9215e5	-0.07133082
192	0xbe208dfe	-0.15679166
193	0x3e5ee611	0.21767451
194	0x3ed2229a	0.41042024
195	0x3dc750bc	0.09732196
196	0x3deea984	0.11653426
197	0x3da6cea4	0.08144882
198	0xbda27f7f	-0.07934474
199	0xbc3414f1	-0.010991321
200	0xbddf8c4d	-0.10915432
201	0xbdf3b5c5	-0.11899904
202	0x3db0a592	0.0862533
203	0xbca64639	-0.020297157
204	0x3df54f39	0.11978001
205	0xbe3f22e9	-0.18665661
206	0x3e2d3f7c	0.16918749
207	0xbe00e0cd	-0.12585755
208	0x3da87f36	0.082273886
209	0x3da585c9	0.08082158
210	0x3e85bc53	0.26120242
211	0x3eec5065	0.46155086
212	0x3e0f17b2	0.13973883
213	0x3e63e7b8	0.22256362
214	0x3e404263	0.18775325
215	0x3cd32110	0.025772601
216	0x3d259c04	0.04043199
217	0x3d3f839e	0.04675638
218	0x3e28e374	0.16493016
219	0x3dc971b1	0.09836138
220	0x3d344b8c	0.04401736
221	0xbe91136d	-0.28335133
222	0xbdabb09a	-0.083832934
223	0xbe6ff98e	-0.23435041
224	0x3e67aca2	0.22624448
225	0xbed1e10b	-0.40992007
226	0x3d4e744b	0.050403874
227	0x3e9b86b9	0.30376223
228	0xbeb49cd5	-0.35275903
229	0x3ec085da	0.3760212
230	0xbdad0945	-0.08449034
231	0xbe320735	-0.17385562
232	0x3efc5ba5	0.4928867
233	0xbe93577b	-0.2877768
234	0xbe9ff332	-0.3124023
235	0x3dc3c2eb	0.09558662
236	0xbdc00b1a	-0.093771175
237	0xbe0fb435	-0.14033587
238	0xbdb70add	-0.08937619
239	0xbd9bde30	-0.07610738
240	0xbe3dd9d8	-0.18540132
241	0x3e0d9d81	0.13829614
242	0x3f3f56cb	0.7474181
243	0xbe9c3f78	-0.30517173
244	0xbd90dbb0	-0.07073152
245	0xbe00fd72	-0.12596682
246	0xbe6d4499	-0.23170699
247	0xbda91fb9	-0.08258004
248	0xbe63a42f	-0.222306
249	0xbe758448	-0.23976243
250	0xbddb67c3	-0.1071315
251	0xbe971ee6	-0.2951576
252	0xbe81243d	-0.2522296
253	0x3e03d08a	0.1287252
254	0xbc32ee0d	-0.010921014
255	0x3d21b9ae	0.03948372

transformer.layers.0.linear1.bias f4 [128]
0	0xbe6d5ba3	-0.23179488
1	0xbe941004	-0.2891847
2	0xbe4cbe56	-0.19994482
3	0xbea352d6	-0.31899136
4	0xbe534c92	-0.20634678
5	0xbea1bb0f	-0.31588027
6	0xbe1e7b88	-0.15476811
7	0xbe34ab8b	-0.17643563
8	0xbe6763fa	-0.22596732
9	0xbe0bdd79	-0.13658704
10	0xbe22c26b	-0.15894477
11	0xbe517365	-0.20454176
12	0xbed53094	-0.41638625
13	0xbe8e57c4	-0.27801335
14	0xbe4a41c8	-0.19751656
15	0xbebd8c01	-0.37020877
16	0xbe70aced	-0.23503466
17	0xbe51057c	-0.20412248
18	0xbe84106e	-0.25793785
19	0xbe26b4e2	-0.16279939
20	0xbe4c4808	-0.19949353
21	0xbeaf9e7a	-0.34300596
22	0xbe87ff9a	-0.26562196
23	0xbe4bfea9	-0.19921364
24	0xbd009990	-0.03139645
25	0xbe7abb80	-0.24485588
26	0xbefcadae	-0.49351257
27	0xbeb7e332	-0.35915524
28	0xbecf83e3	-0.4053031
29	0xbe0c9a40	-0.13730717
30	0xbe2b7052	-0.16742066
31	0xbe81a4b4	-0.2532097
32	0xbeb17e86	-0.34666842
33	0xbe956cdb	-0.29184613
34	0xbe510f4e	-0.20415995
35	0xbdf79ec2	-0.120908275
36	0xbe8ae43d	-0.27127257
37	0xbe4c28a5	-0.1993738
38	0xbd67c5a4	-0.05658497
39	0xbe497cbf	-0.19676493
40	0xbebda0c5	-0.3703672
41	0xbceba909	-0.028767126
42	0xbe3ee00b	-0.18640153
43	0xbe56a9cb	-0.20963208
44	0xbe2d545d	-0.16926713
45	0xbe7de03b	-0.24792568
46	0xbe079089	-0.1323873
47	0xbee14235	-0.43995824
48	0xbe88eb40	-0.26741982
49	0xbe61308f	-0.2199118
50	0xbddfded5	-0.10931174
51	0xbda128a2	-0.07869078
52	0xbe80705e	-0.2508573
53	0xbe5fc08f	-0.21850799
54	0xbe6957b2	-0.2278736
55	0xbe9aa768	-0.30205846
56	0xbe96fb52	-0.29488617
57	0xbe9b380c	-0.30316198
58	0xbe93080f	-0.28717086
59	0xbe8861ad	-0.2663702
60	0xbe8709e8	-0.26374745
61	0xbd9b47c0	-0.075820446
62	0xbeb774fd	-0.35831442
63	0xbe90edff	-0.28306577
64	0xbeb27584	-0.34855282
65	0xbea280b8	-0.3173883
66	0xbea4a152	-0.32154328
67	0xbe93f4ee	-0.28897804
68	0xbec32144	-0.38111317
69	0xbd524290	-0.05133301
70	0xbe9012fe	-0.2813949
71	0xbe1691ab	-0.14704005
72	0xbe6fe627	-0.2342764
73	0xbe9c3ced	-0.30515233
74	0xbef10c5a	-0.47079736
75	0xbd920134	-0.07129136
76	0xbe4301cf	-0.19043659
77	0xbe80d279	-0.25160578
78	0xbeb0a9ae	-0.34504455
79	0xbe965eeb	-0.29369292
80	0xbe8e34bd	-0.2777461
81	0xbe63d253	-0.22248201
82	0xbe965514	-0.29361784
83	0xbe8b9c94	-0.27267897
84	0xbe089ca2	-0.13341
85	0xbe213851	-0.15744139
86	0xbeadedce	-0.33970493
87	0xbec56147	-0.3855078
88	0xbe6bc1e5	-0.23023184
89	0xbe3a3cf7	-0.18187319
90	0xbe7b547a	-0.24543944
91	0xbe5cfc46	-0.2158061
92	0xbeaf0c88	-0.34189248
93	0xbea24e04	-0.31700146
94	0xbed3b5de	-0.4134969
95	0xbe92b975	-0.28657117
96	0xbe588604	-0.21144873
97	0xbe0781a3	-0.13233046
98	0xbe6ca097	-0.23108135
99	0xbe562dfb	-0.20915978
100	0xbe6bf34c	-0.23042029
101	0xbecc0298	-0.3984573
102	0xbeadeba4	-0.33968842
103	0xbe8cc634	-0.27494967
104	0xbe9bcaee	-0.3042826
105	0xbe86f150	-0.26355982
106	0xbe3f80c2	-0.18701461
107	0xbe49c211	-0.19702937
108	0xbe2e578e	-0.17025587
109	0xbe7bd936	-0.24594578
110	0xbe62c267	-0.22144471
111	0xbd894cd7	-0.06704109
112	0xbec8cb54	-0.39217627
113	0xbe7b51de	-0.24542949
114	0xbdb19a3f	-0.08671998
115	0xbe5dac14	-0.21647674
116	0xbd0013b1	-0.03126878
117	0xbe804c58	-0.25058246
118	0xbe2ffbf6	-0.17185959
119	0xbeab9a82	-0.33516318
120	0xbe84265c	-0.25810516
121	0xbe80e4cd	-0.2517456
122	0xbe35e472	-0.17762926
123	0xbe66e5be	-0.22548577
124	0xbe9ed54c	-0.31022108
125	0xbeb5eacb	-0.35530695
126	0xbe86c413	-0.26321468
127	0xbe59dffc	-0.2127685
